…
ss=\"token number\">100</span><span class=\"token punctuation\">,</span> <span class=\"token number\">100</span><span class=\"token punctuation\">)</span><span class=\"token punctuation\">)</span><span class=\"token punctuation\">;</span></code></pre></div>\n<div class=\"gatsby-highlight\" data-language=\"text\"><pre class=\"language-text\"><code class=\"language-text\">----------------------------------------------------------------\n        Layer (type)               Output Shape         Param #\n================================================================\n            Conv2d-1          [-1, 3, 100, 100]              30\n              ReLU-2          [-1, 3, 100, 100]               0\n            Conv2d-3          [-1, 2, 100, 100]              56\n              ReLU-4          [-1, 2, 100, 100]               0\n           Flatten-5                [-1, 20000]               0\n            Linear-6                    [-1, 1]          20,001\n================================================================\nTotal params: 20,087\nTrainable params: 20,087\nNon-trainable params: 0\n----------------------------------------------------------------\nInput size (MB): 0.04\nForward/backward pass size (MB): 0.92\nParams size (MB): 0.08\nEstimated Total Size (MB): 1.03\n----------------------------------------------------------------</code></p
…
ss=\"token number\">100</span><span class=\"token punctuation\">,</span> <span class=\"token number\">100</span><span class=\"token punctuation\">)</span><span class=\"token punctuation\">)</span><span class=\"token punctuation\">;</span></code></pre></div>\n<div class=\"gatsby-highlight\" data-language=\"text\"><pre class=\"language-text\"><code class=\"language-text\">----------------------------------------------------------------\n        Layer (type)               Output Shape         Param #\n================================================================\n            Conv2d-1          [-1, 3, 100, 100]              30\n              ReLU-2          [-1, 3, 100, 100]               0\n         MaxPool2d-3            [-1, 3, 50, 50]               0\n            Conv2d-4            [-1, 2, 50, 50]              56\n              ReLU-5            [-1, 2, 50, 50]               0\n         MaxPool2d-6            [-1, 2, 25, 25]               0\n           Flatten-7                 [-1, 1250]               0\n            Linear-8                    [-1, 1]           1,251\n================================================================\nTotal params: 1,337\nTrainable params: 1,337\nNon-trainable params: 0\n----------------------------------------------------------------\nInput size (MB): 0.04\nForward/backward pass size (MB): 0.61\nParams size (MB): 0.01\nEstimated Total Size (MB): 0.65\n----------------------------------------------------------------</code></pre
…
